node {
  name: "x1"
  op: "Placeholder"
  attr {
    key: "dtype"
    value {
      type: DT_FLOAT
    }
  }
  attr {
    key: "shape"
    value {
      shape {
        dim {
          size: -1
        }
        dim {
          size: 32
        }
        dim {
          size: 32
        }
        dim {
          size: 1
        }
      }
    }
  }
}
node {
  name: "sequential_1/conv2d_1/convolution/ReadVariableOp/resource"
  op: "Const"
  attr {
    key: "dtype"
    value {
      type: DT_FLOAT
    }
  }
  attr {
    key: "value"
    value {
      tensor {
        dtype: DT_FLOAT
        tensor_shape {
          dim {
            size: 5
          }
          dim {
            size: 5
          }
          dim {
            size: 1
          }
          dim {
            size: 6
          }
        }
        tensor_content: "…"
      }
    }
  }
}
node {
  name: "sequential_1/conv2d_1/Reshape/ReadVariableOp/resource"
  op: "Const"
  attr {
    key: "dtype"
    value {
      type: DT_FLOAT
    }
  }
  attr {
    key: "value"
    value {
      tensor {
        dtype: DT_FLOAT
        tensor_shape {
          dim {
            size: 6
          }
        }
        tensor_content: "\000\000\000\000\000\000\000\000\000\000\000\000\000\000\000\000\000\000\000\000\000\000\000\000"
      }
    }
  }
}
node {
  name: "sequential_1/conv2d_1/Reshape/shape"
  op: "Const"
  attr {
    key: "dtype"
    value {
      type: DT_INT32
    }
  }
  attr {
    key: "value"
    value {
      tensor {
        dtype: DT_INT32
        tensor_shape {
          dim {
            size: 4
          }
        }
        tensor_content: "\001\000\000\000\001\000\000\000\001\000\000\000\006\000\000\000"
      }
    }
  }
}
node {
  name: "sequential_1/conv2d_1_2/convolution/ReadVariableOp/resource"
  op: "Const"
  attr {
    key: "dtype"
    value {
      type: DT_FLOAT
    }
  }
  attr {
    key: "value"
    value {
      tensor {
        dtype: DT_FLOAT
        tensor_shape {
          dim {
            size: 5
          }
          dim {
            size: 5
          }
          dim {
            size: 6
          }
          dim {
            size: 16
          }
        }
        tensor_content: "…"
      }
    }
  }
}
node {
  name: "sequential_1/conv2d_1_2/Reshape/ReadVariableOp/resource"
  op: "Const"
  attr {
    key: "dtype"
    value {
      type: DT_FLOAT
    }
  }
  attr {
    key: "value"
    value {
      tensor {
        dtype: DT_FLOAT
        tensor_shape {
          dim {
            size: 16
          }
        }
        tensor_content: "…"
      }
    }
  }
}
node {
  name: "sequential_1/conv2d_1_2/Reshape/shape"
  op: "Const"
  attr {
    key: "dtype"
    value {
      type: DT_INT32
    }
  }
  attr {
    key: "value"
    value {
      tensor {
        dtype: DT_INT32
        tensor_shape {
          dim {
            size: 4
          }
        }
        tensor_content: "\001\000\000\000\001\000\000\000\001\000\000\000\020\000\000\000"
      }
    }
  }
}
node {
  name: "sequential_1/conv2d_2_1/convolution/ReadVariableOp/resource"
  op: "Const"
  attr {
    key: "dtype"
    value {
      type: DT_FLOAT
    }
  }
  attr {
    key: "value"
    value {
      tensor {
        dtype: DT_FLOAT
        tensor_shape {
          dim {
            size: 5
          }
          dim {
            size: 5
          }
          dim {
            size: 16
          }
          dim {
            size: 120
          }
        }
        tensor_content: "…"
      }
    }
  }
}
node {
  name: "sequential_1/conv2d_2_1/Reshape/ReadVariableOp/resource"
  op: "Const"
  attr {
    key: "dtype"
    value {
      type: DT_FLOAT
    }
  }
  attr {
    key: "value"
    value {
      tensor {
        dtype: DT_FLOAT
        tensor_shape {
          dim {
            size: 120
          }
        }
        tensor_content: "…"
      }
    }
  }
}
node {
  name: "sequential_1/conv2d_2_1/Reshape/shape"
  op: "Const"
  attr {
    key: "dtype"
    value {
      type: DT_INT32
    }
  }
  attr {
    key: "value"
    value {
      tensor {
        dtype: DT_INT32
        tensor_shape {
          dim {
            size: 4
          }
        }
        tensor_content: "\001\000\000\000\001\000\000\000\001\000\000\000x\000\000\000"
      }
    }
  }
}
node {
  name: "sequential_1/flatten_1/Reshape/shape"
  op: "Const"
  attr {
    key: "dtype"
    value {
      type: DT_INT32
    }
  }
  attr {
    key: "value"
    value {
      tensor {
        dtype: DT_INT32
        tensor_shape {
          dim {
            size: 2
          }
        }
        tensor_content: "\377\377\377\377x\000\000\000"
      }
    }
  }
}
node {
  name: "sequential_1/dense_1/Cast/ReadVariableOp/resource"
  op: "Const"
  attr {
    key: "dtype"
    value {
      type: DT_FLOAT
    }
  }
  attr {
    key: "value"
    value {
      tensor {
        dtype: DT_FLOAT
        tensor_shape {
          dim {
            size: 120
          }
          dim {
            size: 84
          }
        }
        tensor_content: "…"
      }
    }
  }
}
node {
  name: "sequential_1/dense_1/Add/ReadVariableOp/resource"
  op: "Const"
  attr {
    key: "dtype"
    value {
      type: DT_FLOAT
    }
  }
  attr {
    key: "value"
    value {
      tensor {
        dtype: DT_FLOAT
        tensor_shape {
          dim {
            size: 84
          }
        }
        tensor_content: "…"
      }
    }
  }
}
node {
  name: "sequential_1/dense_1_2/Cast/ReadVariableOp/resource"
  op: "Const"
  attr {
    key: "dtype"
    value {
      type: DT_FLOAT
    }
  }
  attr {
    key: "value"
    value {
      tensor {
        dtype: DT_FLOAT
        tensor_shape {
          dim {
            size: 84
          }
          dim {
            size: 10
          }
        }
        tensor_content: "…"
      }
    }
  }
}
node {
  name: "sequential_1/dense_1_2/Add/ReadVariableOp/resource"
  op: "Const"
  attr {
    key: "dtype"
    value {
      type: DT_FLOAT
    }
  }
  attr {
    key: "value"
    value {
      tensor {
        dtype: DT_FLOAT
        tensor_shape {
          dim {
            size: 10
          }
        }
        tensor_content: "…"
      }
    }
  }
}
node {
  name: "sequential_1/conv2d_1/convolution/ReadVariableOp"
  op: "Identity"
  input: "sequential_1/conv2d_1/convolution/ReadVariableOp/resource"
  attr {
    key: "T"
    value {
      type: DT_FLOAT
    }
  }
  attr {
    key: "_has_manual_control_dependencies"
    value {
      b: true
    }
  }
}
node {
  name: "sequential_1/conv2d_1/convolution"
  op: "Conv2D"
  input: "x1"
  input: "sequential_1/conv2d_1/convolution/ReadVariableOp"
  attr {
    key: "T"
    value {
      type: DT_FLOAT
    }
  }
  attr {
    key: "data_format"
    value {
      s: "NHWC"
    }
  }
  attr {
    key: "dilations"
    value {
      list {
        i: 1
        i: 1
        i: 1
        i: 1
      }
    }
  }
  attr {
    key: "explicit_paddings"
    value {
      list {
      }
    }
  }
  attr {
    key: "padding"
    value {
      s: "VALID"
    }
  }
  attr {
    key: "strides"
    value {
      list {
        i: 1
        i: 1
        i: 1
        i: 1
      }
    }
  }
  attr {
    key: "use_cudnn_on_gpu"
    value {
      b: true
    }
  }
}
node {
  name: "sequential_1/conv2d_1/Reshape/ReadVariableOp"
  op: "Identity"
  input: "sequential_1/conv2d_1/Reshape/ReadVariableOp/resource"
  attr {
    key: "T"
    value {
      type: DT_FLOAT
    }
  }
  attr {
    key: "_has_manual_control_dependencies"
    value {
      b: true
    }
  }
}
node {
  name: "sequential_1/conv2d_1/Reshape"
  op: "Reshape"
  input: "sequential_1/conv2d_1/Reshape/ReadVariableOp"
  input: "sequential_1/conv2d_1/Reshape/shape"
  attr {
    key: "T"
    value {
      type: DT_FLOAT
    }
  }
  attr {
    key: "Tshape"
    value {
      type: DT_INT32
    }
  }
}
node {
  name: "sequential_1/conv2d_1/add"
  op: "AddV2"
  input: "sequential_1/conv2d_1/convolution"
  input: "sequential_1/conv2d_1/Reshape"
  attr {
    key: "T"
    value {
      type: DT_FLOAT
    }
  }
}
node {
  name: "sequential_1/conv2d_1/Tanh"
  op: "Tanh"
  input: "sequential_1/conv2d_1/add"
  attr {
    key: "T"
    value {
      type: DT_FLOAT
    }
  }
}
node {
  name: "sequential_1/average_pooling2d_1/AvgPool"
  op: "AvgPool"
  input: "sequential_1/conv2d_1/Tanh"
  attr {
    key: "T"
    value {
      type: DT_FLOAT
    }
  }
  attr {
    key: "data_format"
    value {
      s: "NHWC"
    }
  }
  attr {
    key: "ksize"
    value {
      list {
        i: 1
        i: 2
        i: 2
        i: 1
      }
    }
  }
  attr {
    key: "padding"
    value {
      s: "VALID"
    }
  }
  attr {
    key: "strides"
    value {
      list {
        i: 1
        i: 2
        i: 2
        i: 1
      }
    }
  }
}
node {
  name: "sequential_1/conv2d_1_2/convolution/ReadVariableOp"
  op: "Identity"
  input: "sequential_1/conv2d_1_2/convolution/ReadVariableOp/resource"
  attr {
    key: "T"
    value {
      type: DT_FLOAT
    }
  }
  attr {
    key: "_has_manual_control_dependencies"
    value {
      b: true
    }
  }
}
node {
  name: "sequential_1/conv2d_1_2/convolution"
  op: "Conv2D"
  input: "sequential_1/average_pooling2d_1/AvgPool"
  input: "sequential_1/conv2d_1_2/convolution/ReadVariableOp"
  attr {
    key: "T"
    value {
      type: DT_FLOAT
    }
  }
  attr {
    key: "data_format"
    value {
      s: "NHWC"
    }
  }
  attr {
    key: "dilations"
    value {
      list {
        i: 1
        i: 1
        i: 1
        i: 1
      }
    }
  }
  attr {
    key: "explicit_paddings"
    value {
      list {
      }
    }
  }
  attr {
    key: "padding"
    value {
      s: "VALID"
    }
  }
  attr {
    key: "strides"
    value {
      list {
        i: 1
        i: 1
        i: 1
        i: 1
      }
    }
  }
  attr {
    key: "use_cudnn_on_gpu"
    value {
      b: true
    }
  }
}
node {
  name: "sequential_1/conv2d_1_2/Reshape/ReadVariableOp"
  op: "Identity"
  input: "sequential_1/conv2d_1_2/Reshape/ReadVariableOp/resource"
  attr {
    key: "T"
    value {
      type: DT_FLOAT
    }
  }
  attr {
    key: "_has_manual_control_dependencies"
    value {
      b: true
    }
  }
}
node {
  name: "sequential_1/conv2d_1_2/Reshape"
  op: "Reshape"
  input: "sequential_1/conv2d_1_2/Reshape/ReadVariableOp"
  input: "sequential_1/conv2d_1_2/Reshape/shape"
  attr {
    key: "T"
    value {
      type: DT_FLOAT
    }
  }
  attr {
    key: "Tshape"
    value {
      type: DT_INT32
    }
  }
}
node {
  name: "sequential_1/conv2d_1_2/add"
  op: "AddV2"
  input: "sequential_1/conv2d_1_2/convolution"
  input: "sequential_1/conv2d_1_2/Reshape"
  attr {
    key: "T"
    value {
      type: DT_FLOAT
    }
  }
}
node {
  name: "sequential_1/conv2d_1_2/Tanh"
  op: "Tanh"
  input: "sequential_1/conv2d_1_2/add"
  attr {
    key: "T"
    value {
      type: DT_FLOAT
    }
  }
}
node {
  name: "sequential_1/average_pooling2d_1_2/AvgPool"
  op: "AvgPool"
  input: "sequential_1/conv2d_1_2/Tanh"
  attr {
    key: "T"
    value {
      type: DT_FLOAT
    }
  }
  attr {
    key: "data_format"
    value {
      s: "NHWC"
    }
  }
  attr {
    key: "ksize"
    value {
      list {
        i: 1
        i: 2
        i: 2
        i: 1
      }
    }
  }
  attr {
    key: "padding"
    value {
      s: "VALID"
    }
  }
  attr {
    key: "strides"
    value {
      list {
        i: 1
        i: 2
        i: 2
        i: 1
      }
    }
  }
}
node {
  name: "sequential_1/conv2d_2_1/convolution/ReadVariableOp"
  op: "Identity"
  input: "sequential_1/conv2d_2_1/convolution/ReadVariableOp/resource"
  attr {
    key: "T"
    value {
      type: DT_FLOAT
    }
  }
  attr {
    key: "_has_manual_control_dependencies"
    value {
      b: true
    }
  }
}
node {
  name: "sequential_1/conv2d_2_1/convolution"
  op: "Conv2D"
  input: "sequential_1/average_pooling2d_1_2/AvgPool"
  input: "sequential_1/conv2d_2_1/convolution/ReadVariableOp"
  attr {
    key: "T"
    value {
      type: DT_FLOAT
    }
  }
  attr {
    key: "data_format"
    value {
      s: "NHWC"
    }
  }
  attr {
    key: "dilations"
    value {
      list {
        i: 1
        i: 1
        i: 1
        i: 1
      }
    }
  }
  attr {
    key: "explicit_paddings"
    value {
      list {
      }
    }
  }
  attr {
    key: "padding"
    value {
      s: "VALID"
    }
  }
  attr {
    key: "strides"
    value {
      list {
        i: 1
        i: 1
        i: 1
        i: 1
      }
    }
  }
  attr {
    key: "use_cudnn_on_gpu"
    value {
      b: true
    }
  }
}
node {
  name: "sequential_1/conv2d_2_1/Reshape/ReadVariableOp"
  op: "Identity"
  input: "sequential_1/conv2d_2_1/Reshape/ReadVariableOp/resource"
  attr {
    key: "T"
    value {
      type: DT_FLOAT
    }
  }
  attr {
    key: "_has_manual_control_dependencies"
    value {
      b: true
    }
  }
}
node {
  name: "sequential_1/conv2d_2_1/Reshape"
  op: "Reshape"
  input: "sequential_1/conv2d_2_1/Reshape/ReadVariableOp"
  input: "sequential_1/conv2d_2_1/Reshape/shape"
  attr {
    key: "T"
    value {
      type: DT_FLOAT
    }
  }
  attr {
    key: "Tshape"
    value {
      type: DT_INT32
    }
  }
}
node {
  name: "sequential_1/conv2d_2_1/add"
  op: "AddV2"
  input: "sequential_1/conv2d_2_1/convolution"
  input: "sequential_1/conv2d_2_1/Reshape"
  attr {
    key: "T"
    value {
      type: DT_FLOAT
    }
  }
}
node {
  name: "sequential_1/conv2d_2_1/Tanh"
  op: "Tanh"
  input: "sequential_1/conv2d_2_1/add"
  attr {
    key: "T"
    value {
      type: DT_FLOAT
    }
  }
}
node {
  name: "sequential_1/flatten_1/Reshape"
  op: "Reshape"
  input: "sequential_1/conv2d_2_1/Tanh"
  input: "sequential_1/flatten_1/Reshape/shape"
  attr {
    key: "T"
    value {
      type: DT_FLOAT
    }
  }
  attr {
    key: "Tshape"
    value {
      type: DT_INT32
    }
  }
}
node {
  name: "sequential_1/dense_1/Cast/ReadVariableOp"
  op: "Identity"
  input: "sequential_1/dense_1/Cast/ReadVariableOp/resource"
  attr {
    key: "T"
    value {
      type: DT_FLOAT
    }
  }
  attr {
    key: "_has_manual_control_dependencies"
    value {
      b: true
    }
  }
}
node {
  name: "sequential_1/dense_1/MatMul"
  op: "MatMul"
  input: "sequential_1/flatten_1/Reshape"
  input: "sequential_1/dense_1/Cast/ReadVariableOp"
  attr {
    key: "T"
    value {
      type: DT_FLOAT
    }
  }
  attr {
    key: "grad_a"
    value {
      b: false
    }
  }
  attr {
    key: "grad_b"
    value {
      b: false
    }
  }
  attr {
    key: "transpose_a"
    value {
      b: false
    }
  }
  attr {
    key: "transpose_b"
    value {
      b: false
    }
  }
}
node {
  name: "sequential_1/dense_1/Add/ReadVariableOp"
  op: "Identity"
  input: "sequential_1/dense_1/Add/ReadVariableOp/resource"
  attr {
    key: "T"
    value {
      type: DT_FLOAT
    }
  }
  attr {
    key: "_has_manual_control_dependencies"
    value {
      b: true
    }
  }
}
node {
  name: "sequential_1/dense_1/Add"
  op: "AddV2"
  input: "sequential_1/dense_1/MatMul"
  input: "sequential_1/dense_1/Add/ReadVariableOp"
  attr {
    key: "T"
    value {
      type: DT_FLOAT
    }
  }
}
node {
  name: "sequential_1/dense_1/Tanh"
  op: "Tanh"
  input: "sequential_1/dense_1/Add"
  attr {
    key: "T"
    value {
      type: DT_FLOAT
    }
  }
}
node {
  name: "sequential_1/dense_1_2/Cast/ReadVariableOp"
  op: "Identity"
  input: "sequential_1/dense_1_2/Cast/ReadVariableOp/resource"
  attr {
    key: "T"
    value {
      type: DT_FLOAT
    }
  }
  attr {
    key: "_has_manual_control_dependencies"
    value {
      b: true
    }
  }
}
node {
  name: "sequential_1/dense_1_2/MatMul"
  op: "MatMul"
  input: "sequential_1/dense_1/Tanh"
  input: "sequential_1/dense_1_2/Cast/ReadVariableOp"
  attr {
    key: "T"
    value {
      type: DT_FLOAT
    }
  }
  attr {
    key: "grad_a"
    value {
      b: false
    }
  }
  attr {
    key: "grad_b"
    value {
      b: false
    }
  }
  attr {
    key: "transpose_a"
    value {
      b: false
    }
  }
  attr {
    key: "transpose_b"
    value {
      b: false
    }
  }
}
node {
  name: "sequential_1/dense_1_2/Add/ReadVariableOp"
  op: "Identity"
  input: "sequential_1/dense_1_2/Add/ReadVariableOp/resource"
  attr {
    key: "T"
    value {
      type: DT_FLOAT
    }
  }
  attr {
    key: "_has_manual_control_dependencies"
    value {
      b: true
    }
  }
}
node {
  name: "sequential_1/dense_1_2/Add"
  op: "AddV2"
  input: "sequential_1/dense_1_2/MatMul"
  input: "sequential_1/dense_1_2/Add/ReadVariableOp"
  attr {
    key: "T"
    value {
      type: DT_FLOAT
    }
  }
}
node {
  name: "sequential_1/dense_1_2/Softmax"
  op: "Softmax"
  input: "sequential_1/dense_1_2/Add"
  attr {
    key: "T"
    value {
      type: DT_FLOAT
    }
  }
}
node {
  name: "NoOp"
  op: "NoOp"
  input: "^sequential_1/conv2d_1/Reshape/ReadVariableOp"
  input: "^sequential_1/conv2d_1/convolution/ReadVariableOp"
  input: "^sequential_1/conv2d_1_2/Reshape/ReadVariableOp"
  input: "^sequential_1/conv2d_1_2/convolution/ReadVariableOp"
  input: "^sequential_1/conv2d_2_1/Reshape/ReadVariableOp"
  input: "^sequential_1/conv2d_2_1/convolution/ReadVariableOp"
  input: "^sequential_1/dense_1/Add/ReadVariableOp"
  input: "^sequential_1/dense_1/Cast/ReadVariableOp"
  input: "^sequential_1/dense_1_2/Add/ReadVariableOp"
  input: "^sequential_1/dense_1_2/Cast/ReadVariableOp"
  attr {
    key: "_has_manual_control_dependencies"
    value {
      b: true
    }
  }
}
node {
  name: "Identity"
  op: "Identity"
  input: "sequential_1/dense_1_2/Softmax"
  input: "^NoOp"
  attr {
    key: "T"
    value {
      type: DT_FLOAT
    }
  }
}
versions {
  producer: 1766
}
