#map = affine_map<(d0, d1, d2, d3) -> (d1, d2, d3, d0)>
#map1 = affine_map<(d0, d1, d2, d3) -> (d0, d1, d2, d3)>
#map2 = affine_map<(d0, d1, d2, d3) -> (d3, d0, d1, d2)>
#map3 = affine_map<(d0, d1, d2, d3) -> (d3)>
#map4 = affine_map<(d0, d1) -> (d0, d1)>
#map5 = affine_map<(d0, d1) -> (d0)>
module attributes {tf.versions = {bad_consumers = [], min_consumer = 0 : i32, producer = 1766 : i32}} {
  func.func @main(%arg0: tensor<1x32x32x1xf32>) -> tensor<1x10xf32> attributes {tf.entry_function = {control_outputs = "", inputs = "x1", outputs = "Identity"}} {
    %cst = arith.constant dense<"…"> : tensor<1x84x10xf32>
    %cst_0 = arith.constant dense<"…"> : tensor<1x120x84xf32>
    %cst_1 = arith.constant dense<0.000000e+00> : tensor<120xf32>
    %cst_2 = arith.constant dense<[3, 0, 1, 2]> : tensor<4xi32>
    %cst_3 = arith.constant dense<0.000000e+00> : tensor<16xf32>
    %cst_4 = arith.constant dense<0.000000e+00> : tensor<6xf32>
    %cst_5 = arith.constant dense<"…"> : tensor<5x5x1x6xf32>
    %cst_6 = arith.constant dense<"…"> : tensor<5x5x6x16xf32>
    %cst_7 = arith.constant dense<"…"> : tensor<5x5x16x120xf32>
    %0 = tensor.empty() : tensor<6x5x5x1xf32>
    %1 = linalg.generic {indexing_maps = [#map, #map1], iterator_types = ["parallel", "parallel", "parallel", "parallel"]} ins(%cst_5 : tensor<5x5x1x6xf32>) outs(%0 : tensor<6x5x5x1xf32>) {
    ^bb0(%in: f32, %out: f32):
      linalg.yield %in : f32
    } -> tensor<6x5x5x1xf32>
    %cst_8 = arith.constant dense<[1, 2, 3, 0]> : tensor<4xi64>
    %2 = tensor.empty() : tensor<5x5x1x6xf32>
    %3 = linalg.generic {indexing_maps = [#map2, #map1], iterator_types = ["parallel", "parallel", "parallel", "parallel"]} ins(%1 : tensor<6x5x5x1xf32>) outs(%2 : tensor<5x5x1x6xf32>) {
    ^bb0(%in: f32, %out: f32):
      linalg.yield %in : f32
    } -> tensor<5x5x1x6xf32>
    %4 = tensor.empty() : tensor<1x28x28x6xf32>
    %cst_9 = arith.constant 0.000000e+00 : f32
    %5 = linalg.fill ins(%cst_9 : f32) outs(%4 : tensor<1x28x28x6xf32>) -> tensor<1x28x28x6xf32>
    %6 = tensor.empty() : tensor<1x28x28x6xf32>
    %7 = linalg.conv_2d_nhwc_hwcf {dilations = dense<1> : tensor<2xi64>, strides = dense<1> : tensor<2xi64>} ins(%arg0, %3 : tensor<1x32x32x1xf32>, tensor<5x5x1x6xf32>) outs(%5 : tensor<1x28x28x6xf32>) -> tensor<1x28x28x6xf32>
    %8 = linalg.generic {indexing_maps = [#map3, #map1, #map1], iterator_types = ["parallel", "parallel", "parallel", "parallel"]} ins(%cst_4, %7 : tensor<6xf32>, tensor<1x28x28x6xf32>) outs(%6 : tensor<1x28x28x6xf32>) {
    ^bb0(%in: f32, %in_23: f32, %out: f32):
      %62 = arith.addf %in, %in_23 : f32
      linalg.yield %62 : f32
    } -> tensor<1x28x28x6xf32>
    %9 = tensor.empty() : tensor<1x28x28x6xf32>
    %10 = linalg.generic {indexing_maps = [#map1, #map1], iterator_types = ["parallel", "parallel", "parallel", "parallel"]} ins(%8 : tensor<1x28x28x6xf32>) outs(%9 : tensor<1x28x28x6xf32>) {
    ^bb0(%in: f32, %out: f32):
      %62 = math.tanh %in : f32
      linalg.yield %62 : f32
    } -> tensor<1x28x28x6xf32>
    %cst_10 = arith.constant 0.000000e+00 : f32
    %11 = tensor.empty() : tensor<1x14x14x6xf32>
    %12 = linalg.fill ins(%cst_10 : f32) outs(%11 : tensor<1x14x14x6xf32>) -> tensor<1x14x14x6xf32>
    %13 = tensor.empty() : tensor<2x2xf32>
    %14 = linalg.pooling_nhwc_sum {dilations = dense<1> : vector<2xi64>, strides = dense<2> : vector<2xi64>} ins(%10, %13 : tensor<1x28x28x6xf32>, tensor<2x2xf32>) outs(%12 : tensor<1x14x14x6xf32>) -> tensor<1x14x14x6xf32>
    %15 = tensor.empty() : tensor<1x14x14x6xf32>
    %16 = linalg.generic {indexing_maps = [#map1, #map1], iterator_types = ["parallel", "parallel", "parallel", "parallel"]} ins(%14 : tensor<1x14x14x6xf32>) outs(%15 : tensor<1x14x14x6xf32>) {
    ^bb0(%in: f32, %out: f32):
      %c0 = arith.constant 0 : index
      %c1 = arith.constant 1 : index
      %c13 = arith.constant 13 : index
      %c13_23 = arith.constant 13 : index
      %62 = linalg.index 1 : index
      %63 = linalg.index 2 : index
      %64 = arith.subi %c13, %62 : index
      %65 = arith.subi %c13_23, %63 : index
      %c2 = arith.constant 2 : index
      %66 = arith.cmpi slt, %c2, %c1 : index
      %67 = arith.select %66, %c1, %c2 : index
      %c2_24 = arith.constant 2 : index
      %68 = arith.cmpi slt, %c2_24, %c1 : index
      %69 = arith.select %68, %c1, %c2_24 : index
      %70 = arith.muli %67, %69 : index
      %71 = arith.index_cast %70 : index to i32
      %72 = arith.sitofp %71 : i32 to f32
      %73 = arith.divf %in, %72 : f32
      linalg.yield %73 : f32
    } -> tensor<1x14x14x6xf32>
    %17 = tensor.empty() : tensor<16x5x5x6xf32>
    %18 = linalg.generic {indexing_maps = [#map, #map1], iterator_types = ["parallel", "parallel", "parallel", "parallel"]} ins(%cst_6 : tensor<5x5x6x16xf32>) outs(%17 : tensor<16x5x5x6xf32>) {
    ^bb0(%in: f32, %out: f32):
      linalg.yield %in : f32
    } -> tensor<16x5x5x6xf32>
    %cst_11 = arith.constant dense<[1, 2, 3, 0]> : tensor<4xi64>
    %19 = tensor.empty() : tensor<5x5x6x16xf32>
    %20 = linalg.generic {indexing_maps = [#map2, #map1], iterator_types = ["parallel", "parallel", "parallel", "parallel"]} ins(%18 : tensor<16x5x5x6xf32>) outs(%19 : tensor<5x5x6x16xf32>) {
    ^bb0(%in: f32, %out: f32):
      linalg.yield %in : f32
    } -> tensor<5x5x6x16xf32>
    %21 = tensor.empty() : tensor<1x10x10x16xf32>
    %cst_12 = arith.constant 0.000000e+00 : f32
    %22 = linalg.fill ins(%cst_12 : f32) outs(%21 : tensor<1x10x10x16xf32>) -> tensor<1x10x10x16xf32>
    %23 = tensor.empty() : tensor<1x10x10x16xf32>
    %24 = linalg.conv_2d_nhwc_hwcf {dilations = dense<1> : tensor<2xi64>, strides = dense<1> : tensor<2xi64>} ins(%16, %20 : tensor<1x14x14x6xf32>, tensor<5x5x6x16xf32>) outs(%22 : tensor<1x10x10x16xf32>) -> tensor<1x10x10x16xf32>
    %25 = linalg.generic {indexing_maps = [#map3, #map1, #map1], iterator_types = ["parallel", "parallel", "parallel", "parallel"]} ins(%cst_3, %24 : tensor<16xf32>, tensor<1x10x10x16xf32>) outs(%23 : tensor<1x10x10x16xf32>) {
    ^bb0(%in: f32, %in_23: f32, %out: f32):
      %62 = arith.addf %in, %in_23 : f32
      linalg.yield %62 : f32
    } -> tensor<1x10x10x16xf32>
    %26 = tensor.empty() : tensor<1x10x10x16xf32>
    %27 = linalg.generic {indexing_maps = [#map1, #map1], iterator_types = ["parallel", "parallel", "parallel", "parallel"]} ins(%25 : tensor<1x10x10x16xf32>) outs(%26 : tensor<1x10x10x16xf32>) {
    ^bb0(%in: f32, %out: f32):
      %62 = math.tanh %in : f32
      linalg.yield %62 : f32
    } -> tensor<1x10x10x16xf32>
    %cst_13 = arith.constant 0.000000e+00 : f32
    %28 = tensor.empty() : tensor<1x5x5x16xf32>
    %29 = linalg.fill ins(%cst_13 : f32) outs(%28 : tensor<1x5x5x16xf32>) -> tensor<1x5x5x16xf32>
    %30 = tensor.empty() : tensor<2x2xf32>
    %31 = linalg.pooling_nhwc_sum {dilations = dense<1> : vector<2xi64>, strides = dense<2> : vector<2xi64>} ins(%27, %30 : tensor<1x10x10x16xf32>, tensor<2x2xf32>) outs(%29 : tensor<1x5x5x16xf32>) -> tensor<1x5x5x16xf32>
    %32 = tensor.empty() : tensor<1x5x5x16xf32>
    %33 = linalg.generic {indexing_maps = [#map1, #map1], iterator_types = ["parallel", "parallel", "parallel", "parallel"]} ins(%31 : tensor<1x5x5x16xf32>) outs(%32 : tensor<1x5x5x16xf32>) {
    ^bb0(%in: f32, %out: f32):
      %c0 = arith.constant 0 : index
      %c1 = arith.constant 1 : index
      %c4 = arith.constant 4 : index
      %c4_23 = arith.constant 4 : index
      %62 = linalg.index 1 : index
      %63 = linalg.index 2 : index
      %64 = arith.subi %c4, %62 : index
      %65 = arith.subi %c4_23, %63 : index
      %c2 = arith.constant 2 : index
      %66 = arith.cmpi slt, %c2, %c1 : index
      %67 = arith.select %66, %c1, %c2 : index
      %c2_24 = arith.constant 2 : index
      %68 = arith.cmpi slt, %c2_24, %c1 : index
      %69 = arith.select %68, %c1, %c2_24 : index
      %70 = arith.muli %67, %69 : index
      %71 = arith.index_cast %70 : index to i32
      %72 = arith.sitofp %71 : i32 to f32
      %73 = arith.divf %in, %72 : f32
      linalg.yield %73 : f32
    } -> tensor<1x5x5x16xf32>
    %34 = tensor.empty() : tensor<120x5x5x16xf32>
    %35 = linalg.generic {indexing_maps = [#map, #map1], iterator_types = ["parallel", "parallel", "parallel", "parallel"]} ins(%cst_7 : tensor<5x5x16x120xf32>) outs(%34 : tensor<120x5x5x16xf32>) {
    ^bb0(%in: f32, %out: f32):
      linalg.yield %in : f32
    } -> tensor<120x5x5x16xf32>
    %cst_14 = arith.constant dense<[1, 2, 3, 0]> : tensor<4xi64>
    %36 = tensor.empty() : tensor<5x5x16x120xf32>
    %37 = linalg.generic {indexing_maps = [#map2, #map1], iterator_types = ["parallel", "parallel", "parallel", "parallel"]} ins(%35 : tensor<120x5x5x16xf32>) outs(%36 : tensor<5x5x16x120xf32>) {
    ^bb0(%in: f32, %out: f32):
      linalg.yield %in : f32
    } -> tensor<5x5x16x120xf32>
    %38 = tensor.empty() : tensor<1x1x1x120xf32>
    %cst_15 = arith.constant 0.000000e+00 : f32
    %39 = linalg.fill ins(%cst_15 : f32) outs(%38 : tensor<1x1x1x120xf32>) -> tensor<1x1x1x120xf32>
    %40 = tensor.empty() : tensor<1x1x1x120xf32>
    %41 = linalg.conv_2d_nhwc_hwcf {dilations = dense<1> : tensor<2xi64>, strides = dense<1> : tensor<2xi64>} ins(%33, %37 : tensor<1x5x5x16xf32>, tensor<5x5x16x120xf32>) outs(%39 : tensor<1x1x1x120xf32>) -> tensor<1x1x1x120xf32>
    %42 = linalg.generic {indexing_maps = [#map3, #map1, #map1], iterator_types = ["parallel", "parallel", "parallel", "parallel"]} ins(%cst_1, %41 : tensor<120xf32>, tensor<1x1x1x120xf32>) outs(%40 : tensor<1x1x1x120xf32>) {
    ^bb0(%in: f32, %in_23: f32, %out: f32):
      %62 = arith.addf %in, %in_23 : f32
      linalg.yield %62 : f32
    } -> tensor<1x1x1x120xf32>
    %43 = tensor.empty() : tensor<1x1x1x120xf32>
    %44 = linalg.generic {indexing_maps = [#map1, #map1], iterator_types = ["parallel", "parallel", "parallel", "parallel"]} ins(%42 : tensor<1x1x1x120xf32>) outs(%43 : tensor<1x1x1x120xf32>) {
    ^bb0(%in: f32, %out: f32):
      %62 = math.tanh %in : f32
      linalg.yield %62 : f32
    } -> tensor<1x1x1x120xf32>
    %collapsed = tensor.collapse_shape %44 [[0], [1, 2], [3]] : tensor<1x1x1x120xf32> into tensor<1x1x120xf32>
    %cst_16 = arith.constant 0.000000e+00 : f32
    %45 = tensor.empty() : tensor<1x1x84xf32>
    %46 = linalg.fill ins(%cst_16 : f32) outs(%45 : tensor<1x1x84xf32>) -> tensor<1x1x84xf32>
    %47 = linalg.batch_matmul ins(%collapsed, %cst_0 : tensor<1x1x120xf32>, tensor<1x120x84xf32>) outs(%46 : tensor<1x1x84xf32>) -> tensor<1x1x84xf32>
    %collapsed_17 = tensor.collapse_shape %47 [[0, 1], [2]] : tensor<1x1x84xf32> into tensor<1x84xf32>
    %48 = tensor.empty() : tensor<1x84xf32>
    %49 = linalg.generic {indexing_maps = [#map4, #map4], iterator_types = ["parallel", "parallel"]} ins(%collapsed_17 : tensor<1x84xf32>) outs(%48 : tensor<1x84xf32>) {
    ^bb0(%in: f32, %out: f32):
      %62 = math.tanh %in : f32
      linalg.yield %62 : f32
    } -> tensor<1x84xf32>
    %expanded = tensor.expand_shape %49 [[0, 1], [2]] : tensor<1x84xf32> into tensor<1x1x84xf32>
    %cst_18 = arith.constant 0.000000e+00 : f32
    %50 = tensor.empty() : tensor<1x1x10xf32>
    %51 = linalg.fill ins(%cst_18 : f32) outs(%50 : tensor<1x1x10xf32>) -> tensor<1x1x10xf32>
    %52 = linalg.batch_matmul ins(%expanded, %cst : tensor<1x1x84xf32>, tensor<1x84x10xf32>) outs(%51 : tensor<1x1x10xf32>) -> tensor<1x1x10xf32>
    %collapsed_19 = tensor.collapse_shape %52 [[0, 1], [2]] : tensor<1x1x10xf32> into tensor<1x10xf32>
    %53 = tensor.empty() : tensor<1x10xf32>
    %54 = linalg.generic {indexing_maps = [#map4, #map4], iterator_types = ["parallel", "parallel"]} ins(%collapsed_19 : tensor<1x10xf32>) outs(%53 : tensor<1x10xf32>) {
    ^bb0(%in: f32, %out: f32):
      %62 = math.exp %in : f32
      linalg.yield %62 : f32
    } -> tensor<1x10xf32>
    %55 = tensor.empty() : tensor<1xf32>
    %cst_20 = arith.constant 0.000000e+00 : f32
    %56 = linalg.fill ins(%cst_20 : f32) outs(%55 : tensor<1xf32>) -> tensor<1xf32>
    %57 = linalg.generic {indexing_maps = [#map4, #map5], iterator_types = ["parallel", "reduction"]} ins(%54 : tensor<1x10xf32>) outs(%56 : tensor<1xf32>) {
    ^bb0(%in: f32, %out: f32):
      %62 = arith.addf %in, %out : f32
      linalg.yield %62 : f32
    } -> tensor<1xf32>
    %expanded_21 = tensor.expand_shape %57 [[0, 1]] : tensor<1xf32> into tensor<1x1xf32>
    %58 = tensor.empty() : tensor<1x1xf32>
    %59 = linalg.generic {indexing_maps = [#map4, #map4], iterator_types = ["parallel", "parallel"]} ins(%expanded_21 : tensor<1x1xf32>) outs(%58 : tensor<1x1xf32>) {
    ^bb0(%in: f32, %out: f32):
      %cst_23 = arith.constant 1.000000e+00 : f32
      %62 = arith.divf %cst_23, %in : f32
      linalg.yield %62 : f32
    } -> tensor<1x1xf32>
    %60 = tensor.empty() : tensor<1x10xf32>
    %collapsed_22 = tensor.collapse_shape %59 [[0, 1]] : tensor<1x1xf32> into tensor<1xf32>
    %61 = linalg.generic {indexing_maps = [#map4, #map5, #map4], iterator_types = ["parallel", "parallel"]} ins(%54, %collapsed_22 : tensor<1x10xf32>, tensor<1xf32>) outs(%60 : tensor<1x10xf32>) {
    ^bb0(%in: f32, %in_23: f32, %out: f32):
      %62 = arith.mulf %in, %in_23 : f32
      linalg.yield %62 : f32
    } -> tensor<1x10xf32>
    return %61 : tensor<1x10xf32>
  }
}

